…
in: ziffer_raw/1_arbitrary_20220227.jpg  -  out: ziffer_resize/1_arbitrary_20220227.jpg
in: ziffer_raw/1_1_digit3_20210315-230740.jpg  -  out: ziffer_resize/1_1_digit3_20210315-230740.jpg
in: ziffer_raw/8_1_20220211.jpg  -  out: ziffer_resize/8_1_20220211.jpg
in: ziffer_raw/2_2_ROI2_20210605-132714a.jpg  -  out: ziffer_resize/2_2_ROI2_20210605-132714a.jpg
dig-s0
a_output_actual/dig-s0
File Exists
Model: "sequential"
_________________________________________________________________
 Layer (type)                Output Shape              Param #   
=================================================================
 batch_normalization (BatchN  (None, 32, 20, 3)        12        
 ormalization)                                                   
                                                                 
 conv2d (Conv2D)             (None, 32, 20, 32)        896       
                                                                 
 max_pooling2d (MaxPooling2D  (None, 16, 10, 32)       0         
 )                                                               
                                                                 
 conv2d_1 (Conv2D)           (None, 16, 10, 64)        18496     
                                                                 
 max_pooling2d_1 (MaxPooling  (None, 8, 5, 64)         0         
 2D)                                                             
                                                                 
 conv2d_2 (Conv2D)           (None, 8, 5, 64)          36928     
                                                                 
 max_pooling2d_2 (MaxPooling  (None, 4, 2, 64)         0         
 2D)                                                             
                                                                 
 flatten (Flatten)           (None, 512)               0         
                                                                 
 dense (Dense)               (None, 512)               262656    
                                                                 
 dense_1 (Dense)             (None, 11)                5643      
                                                                 
=================================================================
Total params: 324,631
Trainable params: 324,625
Non-trainable params: 6
_________________________________________________________________
1217
(1217, 32, 20, 3)
(1217, 11)
(973, 32, 20, 3)
(244, 32, 20, 3)
Epoch 1/100
  1/244 [..............................] -
…
244/244 [==============================] - 2s 9ms/step - loss: 7.8411e-09 - accuracy: 1.0000 - val_loss: 0.0820 - val_accuracy: 0.9918
dig-s0
File Exists
ziffer_resize/1_10_dec3_20220322-074148.jpg 1 -1
ziffer_resize/4_10_dec3_20220321-184148.jpg 4 -1
ziffer_resize/6_5_dec3_20220321-235648.jpg 6 -1
dig-s1
a_output_actual/dig-s1
File Exists
Model: "sequential_1"
_________________________________________________________________
 Layer (type)                Output Shape              Param #   
=================================================================
 batch_normalization_1 (Batc  (None, 32, 20, 3)        12        
 hNormalization)                                                 
                                                                 
 conv2d_3 (Conv2D)           (None, 32, 20, 32)        896       
                                                                 
 max_pooling2d_3 (MaxPooling  (None, 16, 10, 32)       0         
 2D)                                                             
                                                                 
 conv2d_4 (Conv2D)           (None, 16, 10, 64)        18496     
                                                                 
 max_pooling2d_4 (MaxPooling  (None, 8, 5, 64)         0         
 2D)                                                             
                                                                 
 conv2d_5 (Conv2D)           (None, 8, 5, 64)          36928     
                                                                 
 max_pooling2d_5 (MaxPooling  (None, 4, 2, 64)         0         
 2D)                                                             
                                                                 
 flatten_1 (Flatten)         (None, 512)               0         
                                                                 
 dense_2 (Dense)             (None, 256)               131328    
                                                                 
 dense_3 (Dense)             (None, 11)                2827      
                                                                 
=================================================================
Total params: 190,487
Trainable params: 190,481
Non-trainable params: 6
_________________________________________________________________
1217
(1217, 32, 20, 3)
(1217, 11)
(973, 32, 20, 3)
(244, 32, 20, 3)
Epoch 1/100
  1/244 [..............................] -
…
20220322	1217	98	0.011409522965550423	0.13309936225414276
20220322	1217	99	0.0005247939843684435	3.2048831144493306e-07
20220322	1217	100	0.010037030093371868	0.00014473302871920168
dig-s1
File Exists
ziffer_resize/6_dec2_20220318-221152.jpg 6 5
ziffer_resize/6_ziffer5_2019-11-17_14-25-03.jpg 6 -1
ziffer_resize/7_2_black5_20220321-055857.jpg 7 -1
dig-s2
a_output_actual/dig-s2
File Exists
Model: "sequential_2"
_________________________________________________________________
 Layer (type)                Output Shape              Param #   
=================================================================
 batch_normalization_2 (Batc  (None, 32, 20, 3)        12        
 hNormalization)                                                 
                                                                 
 conv2d_6 (Conv2D)           (None, 32, 20, 32)        896       
                                                                 
 max_pooling2d_6 (MaxPooling  (None, 16, 10, 32)       0         
 2D)                                                             
                                                                 
 conv2d_7 (Conv2D)           (None, 16, 10, 32)        9248      
                                                                 
 max_pooling2d_7 (MaxPooling  (None, 8, 5, 32)         0         
 2D)                                                             
                                                                 
 conv2d_8 (Conv2D)           (None, 8, 5, 32)          9248      
                                                                 
 max_pooling2d_8 (MaxPooling  (None, 4, 2, 32)         0         
 2D)                                                             
                                                                 
 flatten_2 (Flatten)         (None, 256)               0         
                                                                 
 dense_4 (Dense)             (None, 256)               65792     
                                                                 
 dense_5 (Dense)             (None, 11)                2827      
                                                                 
=================================================================
Total params: 88,023
Trainable params: 88,017
Non-trainable params: 6
_________________________________________________________________
1217
(1217, 32, 20, 3)
(1217, 11)
(973, 32, 20, 3)
(244, 32, 20, 3)
Epoch 1/100
  1/244 [..............................] - E
…
20220322	1217	97	0.006926065776497126	0.19417983293533325
20220322	1217	98	7.199683750513941e-05	0.0942058265209198
20220322	1217	99	0.00016931243590079248	0.6271324157714844
20220322	1217	100	0.007888187654316425	0.3462924659252167
dig-s2
File Exists
ziffer_resize/1_10_black3_20220321-052857.jpg 1 0
ziffer_resize/7_10_black4_20220318-002047.jpg 7 2
dig-s3
a_output_actual/dig-s3
File Exists
Model: "sequential_3"
_________________________________________________________________
 Layer (type)                Output Shape              Param #   
=================================================================
 batch_normalization_3 (Batc  (None, 32, 20, 3)        12        
 hNormalization)                                                 
                                                                 
 conv2d_9 (Conv2D)           (None, 32, 20, 32)        896       
                                                                 
 max_pooling2d_9 (MaxPooling  (None, 16, 10, 32)       0         
 2D)                                                             
                                                                 
 conv2d_10 (Conv2D)          (None, 16, 10, 32)        9248      
                                                                 
 max_pooling2d_10 (MaxPoolin  (None, 8, 5, 32)         0         
 g2D)                                                            
                                                                 
 conv2d_11 (Conv2D)          (None, 8, 5, 32)          9248      
                                                                 
 max_pooling2d_11 (MaxPoolin  (None, 4, 2, 32)         0         
 g2D)                                                            
                                                                 
 flatten_3 (Flatten)         (None, 256)               0         
                                                                 
 dense_6 (Dense)             (None, 128)               32896     
                                                                 
 dense_7 (Dense)             (None, 11)                1419      
                                                                 
=================================================================
Total params: 53,719
Trainable params: 53,713
Non-trainable params: 6
_________________________________________________________________
1217
(1217, 32, 20, 3)
(1217, 11)
(973, 32, 20, 3)
(244, 32, 20, 3)
Epoch 1/100
  1/244 [..............................] - E
…
